Took 2.01 seconds to load the data
The decomposed network has the following architecture
 Net(
  (c1): Sequential(
    (0): Conv3d(4, 2, kernel_size=(5, 11, 11), stride=(1, 1, 1), padding=(2, 5, 5), bias=False)
    (1): Conv3d(2, 6, kernel_size=(1, 1, 1), stride=(1, 1, 1))
  )
  (c2): Sequential(
    (0): Conv3d(6, 2, kernel_size=(1, 1, 1), stride=(1, 1, 1), bias=False)
    (1): Conv3d(2, 3, kernel_size=(5, 11, 11), stride=(1, 1, 1), bias=False)
    (2): Conv3d(3, 16, kernel_size=(1, 1, 1), stride=(1, 1, 1))
  )
  (pool3d): MaxPool3d(kernel_size=(2, 4, 4), stride=(2, 4, 4), padding=(0, 0, 0), dilation=1, ceil_mode=False)
  (l1): Sequential(
    (0): Linear(in_features=2800, out_features=5, bias=False)
    (1): Linear(in_features=5, out_features=2, bias=False)
    (2): Linear(in_features=2, out_features=128, bias=True)
  )
  (l2): Sequential(
    (0): Linear(in_features=128, out_features=1, bias=False)
    (1): Linear(in_features=1, out_features=84, bias=True)
  )
  (l_out): Linear(in_features=84, out_features=2, bias=True)
)
Parameters:
Original: 442156  Decomposed: 23424  Ratio: 0.053

-- USING GPU --
--------------------- Training details ---------------------
   Learning rate:       Batch size:       Number of folds   
       0.0010                10                  5          
------------------------------------------------------------
------------------------ EPOCH   1 -------------------------
…
